weights_4inputs/0_weights.pt (torch_old, 1201 bytes, 6 tensors)

fc1.weight f4 [4, 4]
-0.1029284 0.16074201 -0.0030544903 0.12340745 0.02688453 -0.08323001 -0.09446531 0.17181833
-0.018323299 0.1248944 -0.050334603 0.03975683 -0.086043976 -0.05694687 -0.027632685 0.05321938
00000000: 20cc d2bd 8e99 243e d82d 48bb 0cbd fc3d
00000010: f23c dc3c 7f74 aabd 0777 c1bd 25f1 2f3e
00000020: be1a 96bc a3c8 ff3d a82b 4ebd 0fd8 223d
00000030: d337 b0bd 1f41 69bd f15d e2bc 91fc 593d

fc1.bias f4 [4]
-0.260265 -0.03526078 -0.05351391 -0.06265917
00000000: 7441 85be 9c6d 10bd 6731 5bbd 7353 80bd

fc2.weight f4 [4, 4]
-0.046813037 -0.10513866 -0.041841842 -0.05684628 0.1269434 0.099541456 0.17105308 0.0011905357
0.13050489 -0.17411107 0.0011127135 -0.08197999 -0.14490335 0.15493312 -0.069738835 -0.07194701
00000000: 07bf 3fbd f052 d7bd 5a62 2bbd a5d7 68bd
00000010: 73fd 013e 64dc cb3d 8a28 2f3e c00b 9c3a
00000020: 13a3 053e 2c4a 32be 78d8 913a 20e5 a7bd
00000030: 8b61 14be caa6 1e3e 3cd3 8ebd f458 93bd

fc2.bias f4 [4]
-0.19988877 -0.14050747 0.22753589 0.35456365
00000000: a4af 4cbe 31e1 0fbe 2bff 683e 5e89 b53e

fc3.weight f4 [2, 4]
0.09365848 -0.15675637 -0.016095903 -0.055467784 0.22213227 -0.112946965 -0.3052786 0.07055312
00000000: 04d0 bf3d be84 20be 8edb 83bc 3032 63bd
00000010: a476 633e bd50 e7bd 7a4d 9cbe 277e 903d

fc3.bias f4 [2]
-0.37285444 0.046822134
00000000: c7e6 bebe 91c8 3f3d
