weights_4inputs/80000_weights.pt (torch_old, 1201 bytes, 6 tensors)

fc1.weight f4 [4, 4]
-0.10267422 0.15889573 -0.007132772 0.121157005 0.030387396 -0.08218574 -0.08907402 0.17311028
-0.018614748 0.12247615 -0.05423917 0.037231788 -0.089480616 -0.07056845 -0.026678503 0.048952196
00000000: dd46 d2bd 90b5 223e 07ba e9bb 2a21 f83d
00000010: fdee f83c ff50 a8bd 716c b6bd d243 313e
00000020: f57d 98bc c7d4 fa3d e429 5ebd 5c80 183d
00000030: 9d41 b7bd 3186 90bd e08c dabc 1982 483d

fc1.bias f4 [4]
-0.26447126 -0.036111124 -0.057769444 -0.06037361
00000000: c768 87be 42e9 13bd a79f 6cbd 524a 77bd

fc2.weight f4 [4, 4]
-0.046813037 -0.10513866 -0.041841842 -0.05684628 0.12325296 0.096873924 0.16832721 -0.0025199302
0.12761196 -0.17601235 -0.0008220988 -0.08556433 -0.14490335 0.15493312 -0.069738835 -0.07194701
00000000: 07bf 3fbd f052 d7bd 5a62 2bbd a5d7 68bd
00000010: 0c6c fc3d d665 c63d f85d 2c3e 6a25 25bb
00000020: b6ac 023e 953c 34be 1e82 57ba 5a3c afbd
00000030: 8b61 14be caa6 1e3e 3cd3 8ebd f458 93bd

fc2.bias f4 [4]
-0.19988877 -0.14511529 0.22387244 0.35456365
00000000: a4af 4cbe 1a99 14be d13e 653e 5e89 b53e

fc3.weight f4 [2, 4]
0.09365848 -0.15520465 -0.014538022 -0.055467784 0.22213227 -0.11062944 -0.30311993 0.07055312
00000000: 04d0 bf3d f8ed 1ebe e230 6ebc 3032 63bd
00000010: a476 633e b091 e2bd 8932 9bbe 277e 903d

fc3.bias f4 [2]
-0.37119466 0.050894674
00000000: 3a0d bebe ef76 503d
