weights_4inputs/best_weights_by_far.pt (torch_old, 1201 bytes, 6 tensors)

fc1.weight f4 [4, 4]
-0.13405968 0.24872936 0.102777235 0.16372974 0.05231655 -0.10844039 -0.18390551 0.16771597
-0.04500062 0.22939809 0.045904342 0.09729606 -0.03636731 -0.079370245 -0.09096095 0.096596695
00000000: f146 09be e9b2 7e3e df7c d23d c5a8 273e
00000010: e149 563d ff15 debd ba51 3cbe bcbd 2b3e
00000020: 9252 38bd 55e7 6a3e 3106 3c3d 2843 c73d
00000030: e3f5 14bd de8c a2bd bc49 babd 7dd4 c53d

fc1.bias f4 [4]
-0.15852295 -0.060194895 0.06385566 -0.094837494
00000000: d753 22be ec8e 76bd c2c6 823d 293a c2bd

fc2.weight f4 [4, 4]
-0.046813037 -0.10513866 -0.041841842 -0.05684628 0.225553 0.07590418 0.26998976 -0.25822067
0.18761441 -0.21546012 0.057515565 -0.30181706 -0.14448597 0.15535176 -0.069738835 -0.071522534
00000000: 07bf 3fbd f052 d7bd 5a62 2bbd a5d7 68bd
00000010: 5ef7 663e a773 9b3d 193c 8a3e 8035 84be
00000020: fe1d 403e 94a1 5cbe 7195 6b3d c487 9abe
00000030: 21f4 13be 8814 1f3e 3cd3 8ebd 687a 92bd

fc2.bias f4 [4]
-0.19988877 -0.021193065 0.30499688 0.35497576
00000000: a4af 4cbe 149d adbc 8d28 9c3e 62bf b53e

fc3.weight f4 [2, 4]
0.09365848 -0.24521933 -0.10752358 -0.055467784 0.22213227 -0.1430163 -0.37472534 0.07094966
00000000: 04d0 bf3d c71a 7bbe 5335 dcbd 3032 63bd
00000010: a476 633e dd72 12be 00dc bfbe 0e4e 913d

fc3.bias f4 [2]
-0.46940398 -0.011654389
00000000: b855 f0be 0df2 3ebc
