weights_4inputs/decent_weights.pt (torch_old, 1170 bytes, 6 tensors)

fc1.weight f4 [4, 4]
-0.102650486 0.16112903 -0.004527464 0.123686366 0.028190061 -0.08370406 -0.0922178 0.17144687
-0.018175196 0.12511654 -0.05163576 0.03991943 -0.08698487 -0.062361095 -0.026682153 0.050424844
00000000: 6b3a d2bd 02ff 243e 1f5b 94bb 474f fd3d
00000010: d8ee e63c 096d abbd b0dc bcbd c58f 2f3e
00000020: 26e4 94bc 8d1e 003e 0580 53bd 8e82 233d
00000030: 2025 b2bd 596e 7fbd 8894 dabc 488a 4e3d

fc1.bias f4 [4]
-0.2610354 -0.036607347 -0.054237604 -0.062214874
00000000: 6fa6 85be 96f1 15bd 4028 5ebd 06d5 7ebd

fc2.weight f4 [4, 4]
-0.046813037 -0.10513866 -0.041841842 -0.05684628 0.12650302 0.09960661 0.17110226 0.00020317626
0.13014622 -0.17385286 0.001277684 -0.082972266 -0.14490335 0.15493312 -0.069738835 -0.07194701
00000000: 07bf 3fbd f052 d7bd 5a62 2bbd a5d7 68bd
00000010: 028a 013e 8dfe cb3d 6e35 2f3e b60b 5539
00000020: 0d45 053e 7c06 32be f677 a73a 5ded a9bd
00000030: 8b61 14be caa6 1e3e 3cd3 8ebd f458 93bd

fc2.bias f4 [4]
-0.19988877 -0.14131662 0.22684477 0.35456365
00000000: a4af 4cbe 4eb5 10be ff49 683e 5e89 b53e

fc3.weight f4 [2, 4]
0.09365848 -0.1570335 -0.016436376 -0.055467784 0.22213227 -0.11286216 -0.3051542 0.07055312
00000000: 04d0 bf3d 64cd 20be 94a5 86bc 3032 63bd
00000010: a476 633e 4724 e7bd 2c3d 9cbe 277e 903d

fc3.bias f4 [2]
-0.37312335 0.047591895
00000000: 060a bfbe b8ef 423d
