weights_4inputs/high_variance_p_good.pt (torch_old, 1201 bytes, 6 tensors)

fc1.weight f4 [4, 4]
00000000: 01c5 0abe 4008 803e 80e0 e33d 549f 273e
00000010: 8e5c 623d 5123 dfbd 5b18 45be bfc9 2b3e
00000020: c240 3dbd 59b3 6c3e 7cea 5a3d 05a0 c73d
00000030: d488 0cbd ade1 a4bd 588e c8bd be5e c63d
-0.13551714 0.25006294 0.11126804 0.16369373 0.05526405 -0.10895408 -0.19247572 0.16776179
-0.046204336 0.2311529 0.053446278 0.09747318 -0.034310177 -0.08050857 -0.09792775 0.096860394

fc1.bias f4 [4]
00000000: e6ba 20be 1a96 7bbd f4d8 863d 8af0 c4bd
-0.15696296 -0.061422445 0.06584349 -0.09616192

fc2.weight f4 [4, 4]
00000000: 07bf 3fbd f052 d7bd 5a62 2bbd a5d7 68bd
00000010: 02c9 683e ab8a 8f3d bc22 8b3e bee5 88be
00000020: 99de 403e a043 61be f5f6 6d3d 667e 9dbe
00000030: 21f4 13be 8814 1f3e 3cd3 8ebd 687a 92bd
-0.046813037 -0.10513866 -0.041841842 -0.05684628 0.22732928 0.07008871 0.27174938 -0.2673778
0.18834914 -0.21998453 0.058096845 -0.30760497 -0.14448597 0.15535176 -0.069738835 -0.071522534

fc2.bias f4 [4]
00000000: a4af 4cbe ed48 9bbc 4696 9c3e 62bf b53e
-0.19988877 -0.018955672 0.305834 0.35497576

fc3.weight f4 [2, 4]
00000000: 04d0 bf3d e36f 7cbe 2235 dfbd 3032 63bd
00000010: a476 633e 730d 12be 5279 c0be 0e4e 913d
0.09365848 -0.24652056 -0.10898806 -0.055467784 0.22213227 -0.14262943 -0.3759256 0.07094966

fc3.bias f4 [2]
00000000: d23a f1be 4fa1 40bc
-0.4711519 -0.011757209
